…
 4511, 4512, 4513, 4514, 4515, 4516, 4517, 4518, 4519, 4520, 4521, 4522, 4523, 4524, 4525, 4526, 4527, 4528, 4529, 4530, 4531, 4532, 4533, 4534, 4535, 4536, 4537, 4538, 4539, 4540, 4541, 4542, 4543, 4544, 4545, 4546, 4547, 4548, 4549, 4550, 4551, 4552, 4553, 4554, 4555, 4556, 4557, 4558, 4559, 4560, 4561, 4562, 4563, 4564, 4565, 4566, 4567, 4568, 4569, 4570, 4571, 4572, 4573, 4574, 4575, 4576, 4577, 4578, 4579, 4580, 4581, 4582, 4583, 4584, 4585, 4586, 4587, 4588, 4589, 4590, 4591, 4592, 4593, 4594, 4595, 4596, 4597, 4598, 4599, 4600, 4601]}"
  }
}
layer {
  name: "conv1"
  type: "Convolution"
  bottom: "data"
  top: "conv1"
  param {
    lr_mult: 1
    decay_mult: 1
  }
  param {
    lr_mult: 2
    decay_mult: 0
  }
  convolution_param {
    num_output: 96
    pad: 0
    kernel_size: 2
    group: 1
    stride: 1
    weight_filler {
      type: "xavier"
    }
    bias_filler {
      type: "constant"
      value: 0
    }
  }
}
layer {
  name: "relu1"
  type: "ReLU"
  bottom: "conv1"
  top: "conv1"
}
layer {
  name: "pool1"
  type: "Pooling"
  bottom: "conv1"
  top: "pool1"
  pooling_param {
    pool: MAX
    kernel_size: 2
    stride: 2
  }
}
layer {
  name: "norm1"
  type: "LRN"
  bottom: "pool1"
  top: "norm1"
  lrn_param {
    local_size: 5
    alpha: 0.0001
    beta: 0.75
  }
}
layer {
  name: "conv2"
  type: "Convolution"
  bottom: "norm1"
  top: "conv2"
  param {
    lr_mult: 1
    decay_mult: 1
  }
  param {
    lr_mult: 2
    decay_mult: 0
  }
  convolution_param {
    num_output: 128
    pad: 0
    kernel_size: 2
    group: 2
    stride: 1
    weight_filler {
      type: "xavier"
    }
    bias_filler {
      type: "constant"
      value: 0
    }
  }
}
layer {
  name: "relu2"
  type: "ReLU"
  bottom: "conv2"
  top: "conv2"
}
layer {
  name: "pool2"
  type: "Pooling"
  bottom: "conv2"
  top: "pool2"
  pooling_param {
    pool: MAX
    kernel_size: 2
    stride: 2
  }
}
layer {
  name: "norm2"
  type: "LRN"
  bottom: "pool2"
  top: "norm2"
  lrn_param {
    local_size: 5
    alpha: 0.0001
    beta: 0.75
  }
}
layer {
  name: "fc6"
  type: "InnerProduct"
  bottom: "norm2"
  top: "fc6"
  inner_product_param {
    num_output: 300
    weight_filler {
      type: "xavier"
    }
    bias_filler {
      type: "constant"
      value: 1
    }
  }
}
layer {
  name: "relu6"
  type: "ReLU"
  bottom: "fc6"
  top: "fc6"
}
layer {
  name: "drop6"
  type: "Dropout"
  bottom: "fc6"
  top: "fc6"
}
layer {
  name: "fc7"
  type: "InnerProduct"
  bottom: "fc6"
  top: "fc7"
  inner_product_param {
    num_output: 300
    weight_filler {
      type: "xavier"
    }
    bias_filler {
      type: "constant"
      value: 1
    }
  }
}
layer {
  name: "relu7"
  type: "ReLU"
  bottom: "fc7"
  top: "fc7"
}
layer {
  name: "drop7"
  type: "Dropout"
  bottom: "fc7"
  top: "fc7"
}
layer {
  name: "score"
  type: "InnerProduct"
  bottom: "fc7"
  top: "score"
  inner_product_param {
    num_output: 19
  }
}
layer {
  name: "loss"
  type: "SigmoidCrossEntropyLoss"
  bottom: "score"
  bottom: "label"
  top: "loss"
}
I1218 02:51:02.061282  3876 layer_factory.hpp:77] Creating layer data
I1218 02:51:02.064574  3876 net.cpp:84] Creating Layer data
I1218 02:51:02.064589  3876 net.cpp:380] data -> data
I1218 02:51:02.064599  3876 net.cpp:380] data -> label
I1218 02:51:02.555647  3876 net.cpp:122] Setting up data
I1218 02:51:02.555724  3876 net.cpp:129] Top shape: 64 26 31 23 (1186432)
I1218 02:51:02.555750  3876 net.cpp:129] Top shape: 64 19 (1216)
I1218 02:51:02.555768  3876 net.cpp:137] Memory required for data: 4750592
I1218 02:51:02.555791  3876 layer_factory.hpp:77] Creating layer conv1
I1218 02:51:02.555829  3876 net.cpp:84] Creating Layer conv1
I1218 02:51:02.555850  3876 net.cpp:406] conv1 <- data
I1218 02:51:02.555876  3876 net.cpp:380] conv1 -> conv1
I1218 02:51:03.023521  3876 net.cpp:122] Setting up conv1
I1218 02:51:03.023597  3876 net.cpp:129] Top shape: 64 96 30 22 (4055040)
I1218 02:51:03.023620  3876 net.cpp:137] Memory required for data: 20970752
I1218 02:51:03.023658  3876 layer_factory.hpp:77] Creating layer relu1
I1218 02:51:03.023689  3876 net.cpp:84] Creating Layer relu1
I1218 02:51:03.023711  3876 net.cpp:406] relu1 <- conv1
I1218 02:51:03.023731  3876 net.cpp:367] relu1 -> conv1 (in-place)
I1218 02:51:03.024057  3876 net.cpp:122] Setting up relu1
I1218 02:51:03.024096  3876 net.cpp:129] Top shape: 64 96 30 22 (4055040)
I1218 02:51:03.024117  3876 net.cpp:137] Memory required for data: 37190912
I1218 02:51:03.024137  3876 layer_factory.hpp:77] Creating layer pool1
I1218 02:51:03.024152  3876 net.cpp:84] Creating Layer pool1
I1218 02:51:03.024173  3876 net.cpp:406] pool1 <- conv1
I1218 02:51:03.024194  3876 net.cpp:380] pool1 -> pool1
I1218 02:51:03.024256  3876 net.cpp:122] Setting up pool1
I1218 02:51:03.024283  3876 net.cpp:129] Top shape: 64 96 15 11 (1013760)
I1218 02:51:03.024302  3876 net.cpp:137] Memory required for data: 41245952
I1218 02:51:03.024320  3876 layer_factory.hpp:77] Creating layer norm1
I1218 02:51:03.024345  3876 net.cpp:84] Creating Layer norm1
I1218 02:51:03.024366  3876 net.cpp:406] norm1 <- pool1
I1218 02:51:03.024387  3876 net.cpp:380] norm1 -> norm1
I1218 02:51:03.024631  3876 net.cpp:122] Setting up norm1
I1218 02:51:03.024665  3876 net.cpp:129] Top shape: 64 96 15 11 (1013760)
I1218 02:51:03.024685  3876 net.cpp:137] Memory required for data: 45300992
I1218 02:51:03.024704  3876 layer_factory.hpp:77] Creating layer conv2
I1218 02:51:03.024737  3876 net.cpp:84] Creating Layer conv2
I1218 02:51:03.024751  3876 net.cpp:406] conv2 <- norm1
I1218 02:51:03.024773  3876 net.cpp:380] conv2 -> conv2
I1218 02:51:03.027281  3876 net.cpp:122] Setting up conv2
I1218 02:51:03.027331  3876 net.cpp:129] Top shape: 64 128 14 10 (1146880)
I1218 02:51:03.027354  3876 net.cpp:137] Memory required for data: 49888512
I1218 02:51:03.027382  3876 layer_factory.hpp:77] Creating layer relu2
I1218 02:51:03.027407  3876 net.cpp:84] Creating Layer relu2
I1218 02:51:03.027426  3876 net.cpp:406] relu2 <- conv2
I1218 02:51:03.027446  3876 net.cpp:367] relu2 -> conv2 (in-place)
I1218 02:51:03.027784  3876 net.cpp:122] Setting up relu2
I1218 02:51:03.027822  3876 net.cpp:129] Top shape: 64 128 14 10 (1146880)
I1218 02:51:03.027843  3876 net.cpp:137] Memory required for data: 54476032
I1218 02:51:03.027863  3876 layer_factory.hpp:77] Creating layer pool2
I1218 02:51:03.027885  3876 net.cpp:84] Creating Layer pool2
I1218 02:51:03.027905  3876 net.cpp:406] pool2 <- conv2
I1218 02:51:03.027920  3876 net.cpp:380] pool2 -> pool2
I1218 02:51:03.027986  3876 net.cpp:122] Setting up pool2
I1218 02:51:03.028014  3876 net.cpp:129] Top shape: 64 128 7 5 (286720)
I1218 02:51:03.028033  3876 net.cpp:137] Memory required for data: 55622912
I1218 02:51:03.028051  3876 layer_factory.hpp:77] Creating layer norm2
I1218 02:51:03.028074  3876 net.cpp:84] Creating Layer norm2
I1218 02:51:03.028095  3876 net.cpp:406] norm2 <- pool2
I1218 02:51:03.028115  3876 net.cpp:380] norm2 -> norm2
I1218 02:51:03.028358  3876 net.cpp:122] Setting up norm2
I1218 02:51:03.028391  3876 net.cpp:129] Top shape: 64 128 7 5 (286720)
I1218 02:51:03.028410  3876 net.cpp:137] Memory required for data: 56769792
I1218 02:51:03.028429  3876 layer_factory.hpp:77] Creating layer fc6
I1218 02:51:03.028446  3876 net.cpp:84] Creating Layer fc6
I1218 02:51:03.028465  3876 net.cpp:406] fc6 <- norm2
I1218 02:51:03.028488  3876 net.cpp:380] fc6 -> fc6
I1218 02:51:03.037219  3876 net.cpp:122] Setting up fc6
I1218 02:51:03.037258  3876 net.cpp:129] Top shape: 64 300 (19200)
I1218 02:51:03.037278  3876 net.cpp:137] Memory required for data: 56846592
I1218 02:51:03.037305  3876 layer_factory.hpp:77] Creating layer relu6
I1218 02:51:03.037329  3876 net.cpp:84] Creating Layer relu6
I1218 02:51:03.037349  3876 net.cpp:406] relu6 <- fc6
I1218 02:51:03.037370  3876 net.cpp:367] relu6 -> fc6 (in-place)
I1218 02:51:03.037698  3876 net.cpp:122] Setting up relu6
I1218 02:51:03.037735  3876 net.cpp:129] Top shape: 64 300 (19200)
I1218 02:51:03.037755  3876 net.cpp:137] Memory required for data: 56923392
I1218 02:51:03.037775  3876 layer_factory.hpp:77] Creating layer drop6
I1218 02:51:03.037791  3876 net.cpp:84] Creating Layer drop6
I1218 02:51:03.037809  3876 net.cpp:406] drop6 <- fc6
I1218 02:51:03.037832  3876 net.cpp:367] drop6 -> fc6 (in-place)
I1218 02:51:03.037880  3876 net.cpp:122] Setting up drop6
I1218 02:51:03.037907  3876 net.cpp:129] Top shape: 64 300 (19200)
I1218 02:51:03.037925  3876 net.cpp:137] Memory required for data: 57000192
I1218 02:51:03.037943  3876 layer_factory.hpp:77] Creating layer fc7
I1218 02:51:03.037959  3876 net.cpp:84] Creating Layer fc7
I1218 02:51:03.037978  3876 net.cpp:406] fc7 <- fc6
I1218 02:51:03.038000  3876 net.cpp:380] fc7 -> fc7
I1218 02:51:03.039068  3876 net.cpp:122] Setting up fc7
I1218 02:51:03.039106  3876 net.cpp:129] Top shape: 64 300 (19200)
I1218 02:51:03.039127  3876 net.cpp:137] Memory required for data: 57076992
I1218 02:51:03.039151  3876 layer_factory.hpp:77] Creating layer relu7
I1218 02:51:03.039175  3876 net.cpp:84] Creating Layer relu7
I1218 02:51:03.039194  3876 net.cpp:406] relu7 <- fc7
I1218 02:51:03.039216  3876 net.cpp:367] relu7 -> fc7 (in-place)
I1218 02:51:03.039568  3876 net.cpp:122] Setting up relu7
I1218 02:51:03.039607  3876 net.cpp:129] Top shape: 64 300 (19200)
I1218 02:51:03.039626  3876 net.cpp:137] Memory required for data: 57153792
I1218 02:51:03.039646  3876 layer_factory.hpp:77] Creating layer drop7
I1218 02:51:03.039669  3876 net.cpp:84] Creating Layer drop7
I1218 02:51:03.039688  3876 net.cpp:406] drop7 <- fc7
I1218 02:51:03.039703  3876 net.cpp:367] drop7 -> fc7 (in-place)
I1218 02:51:03.039752  3876 net.cpp:122] Setting up drop7
I1218 02:51:03.039783  3876 net.cpp:129] Top shape: 64 300 (19200)
I1218 02:51:03.039803  3876 net.cpp:137] Memory required for data: 57230592
I1218 02:51:03.039815  3876 layer_factory.hpp:77] Creating layer score
I1218 02:51:03.039836  3876 net.cpp:84] Creating Layer score
I1218 02:51:03.039856  3876 net.cpp:406] score <- fc7
I1218 02:51:03.039877  3876 net.cpp:380] score -> score
I1218 02:51:03.039999  3876 net.cpp:122] Setting up score
I1218 02:51:03.040025  3876 net.cpp:129] Top shape: 64 19 (1216)
I1218 02:51:03.040043  3876 net.cpp:137] Memory required for data: 57235456
I1218 02:51:03.040069  3876 layer_factory.hpp:77] Creating layer loss
I1218 02:51:03.040096  3876 net.cpp:84] Creating Layer loss
I1218 02:51:03.040117  3876 net.cpp:406] loss <- score
I1218 02:51:03.040136  3876 net.cpp:406] loss <- label
I1218 02:51:03.040158  3876 net.cpp:380] loss -> loss
I1218 02:51:03.040220  3876 net.cpp:122] Setting up loss
…
