…
iter_size: 1
momentum2: 0.999
type: "Adam"
I1217 07:35:18.714390 92554 solver.cpp:77] Creating training net from train_net file: /home/xikun/project/proj_src/models/trainnet.prototxt
I1217 07:35:18.714668 92554 net.cpp:51] Initializing net from parameters: 
state {
  phase: TRAIN
}
layer {
  name: "data"
  type: "Python"
  top: "data"
  top: "label"
  python_param {
    module: "multilabel_datalayers"
    layer: "MultilabelDataLayerSync"
    param_str: "{\'split\': \'train\', \'data_root\': \'/home/xikun/project/CS446-project_data\', \'batch_size\': 64}"
  }
}
layer {
  name: "conv1"
  type: "Convolution"
  bottom: "data"
  top: "conv1"
  param {
    lr_mult: 1
    decay_mult: 1
  }
  param {
    lr_mult: 2
    decay_mult: 0
  }
  convolution_param {
    num_output: 96
    pad: 0
    kernel_size: 1
    group: 1
    stride: 1
    weight_filler {
      type: "xavier"
    }
    bias_filler {
      type: "constant"
      value: 0
    }
  }
}
layer {
  name: "relu1"
  type: "ReLU"
  bottom: "conv1"
  top: "conv1"
}
layer {
  name: "pool1"
  type: "Pooling"
  bottom: "conv1"
  top: "pool1"
  pooling_param {
    pool: MAX
    kernel_size: 2
    stride: 2
  }
}
layer {
  name: "norm1"
  type: "LRN"
  bottom: "pool1"
  top: "norm1"
  lrn_param {
    local_size: 5
    alpha: 0.0001
    beta: 0.75
  }
}
layer {
  name: "conv2"
  type: "Convolution"
  bottom: "norm1"
  top: "conv2"
  param {
    lr_mult: 1
    decay_mult: 1
  }
  param {
    lr_mult: 2
    decay_mult: 0
  }
  convolution_param {
    num_output: 128
    pad: 0
    kernel_size: 1
    group: 2
    stride: 1
    weight_filler {
      type: "xavier"
    }
    bias_filler {
      type: "constant"
      value: 0
    }
  }
}
layer {
  name: "relu2"
  type: "ReLU"
  bottom: "conv2"
  top: "conv2"
}
layer {
  name: "pool2"
  type: "Pooling"
  bottom: "conv2"
  top: "pool2"
  pooling_param {
    pool: MAX
    kernel_size: 2
    stride: 2
  }
}
layer {
  name: "norm2"
  type: "LRN"
  bottom: "pool2"
  top: "norm2"
  lrn_param {
    local_size: 5
    alpha: 0.0001
    beta: 0.75
  }
}
layer {
  name: "fc6"
  type: "InnerProduct"
  bottom: "norm2"
  top: "fc6"
  inner_product_param {
    num_output: 300
    weight_filler {
      type: "xavier"
    }
    bias_filler {
      type: "constant"
      value: 1
    }
  }
}
layer {
  name: "relu6"
  type: "ReLU"
  bottom: "fc6"
  top: "fc6"
}
layer {
  name: "drop6"
  type: "Dropout"
  bottom: "fc6"
  top: "fc6"
}
layer {
  name: "fc7"
  type: "InnerProduct"
  bottom: "fc6"
  top: "fc7"
  inner_product_param {
    num_output: 300
    weight_filler {
      type: "xavier"
    }
    bias_filler {
      type: "constant"
      value: 1
    }
  }
}
layer {
  name: "relu7"
  type: "ReLU"
  bottom: "fc7"
  top: "fc7"
}
layer {
  name: "drop7"
  type: "Dropout"
  bottom: "fc7"
  top: "fc7"
}
layer {
  name: "score"
  type: "InnerProduct"
  bottom: "fc7"
  top: "score"
  inner_product_param {
    num_output: 19
  }
}
layer {
  name: "loss"
  type: "SigmoidCrossEntropyLoss"
  bottom: "score"
  bottom: "label"
  top: "loss"
}
I1217 07:35:18.714781 92554 layer_factory.hpp:77] Creating layer data
I1217 07:35:18.718837 92554 net.cpp:84] Creating Layer data
I1217 07:35:18.718879 92554 net.cpp:380] data -> data
I1217 07:35:18.718910 92554 net.cpp:380] data -> label
I1217 07:35:19.285156 92554 net.cpp:122] Setting up data
I1217 07:35:19.285230 92554 net.cpp:129] Top shape: 64 26 31 23 (1186432)
I1217 07:35:19.285254 92554 net.cpp:129] Top shape: 64 19 (1216)
I1217 07:35:19.285265 92554 net.cpp:137] Memory required for data: 4750592
I1217 07:35:19.285279 92554 layer_factory.hpp:77] Creating layer conv1
I1217 07:35:19.285320 92554 net.cpp:84] Creating Layer conv1
I1217 07:35:19.285333 92554 net.cpp:406] conv1 <- data
I1217 07:35:19.285351 92554 net.cpp:380] conv1 -> conv1
I1217 07:35:19.751951 92554 net.cpp:122] Setting up conv1
I1217 07:35:19.751991 92554 net.cpp:129] Top shape: 64 96 31 23 (4380672)
I1217 07:35:19.751996 92554 net.cpp:137] Memory required for data: 22273280
I1217 07:35:19.752018 92554 layer_factory.hpp:77] Creating layer relu1
I1217 07:35:19.752030 92554 net.cpp:84] Creating Layer relu1
I1217 07:35:19.752035 92554 net.cpp:406] relu1 <- conv1
I1217 07:35:19.752040 92554 net.cpp:367] relu1 -> conv1 (in-place)
I1217 07:35:19.752353 92554 net.cpp:122] Setting up relu1
I1217 07:35:19.752377 92554 net.cpp:129] Top shape: 64 96 31 23 (4380672)
I1217 07:35:19.752380 92554 net.cpp:137] Memory required for data: 39795968
I1217 07:35:19.752383 92554 layer_factory.hpp:77] Creating layer pool1
I1217 07:35:19.752393 92554 net.cpp:84] Creating Layer pool1
I1217 07:35:19.752395 92554 net.cpp:406] pool1 <- conv1
I1217 07:35:19.752401 92554 net.cpp:380] pool1 -> pool1
I1217 07:35:19.752445 92554 net.cpp:122] Setting up pool1
I1217 07:35:19.752460 92554 net.cpp:129] Top shape: 64 96 16 12 (1179648)
I1217 07:35:19.752462 92554 net.cpp:137] Memory required for data: 44514560
I1217 07:35:19.752465 92554 layer_factory.hpp:77] Creating layer norm1
I1217 07:35:19.752473 92554 net.cpp:84] Creating Layer norm1
I1217 07:35:19.752477 92554 net.cpp:406] norm1 <- pool1
I1217 07:35:19.752482 92554 net.cpp:380] norm1 -> norm1
I1217 07:35:19.752724 92554 net.cpp:122] Setting up norm1
I1217 07:35:19.752743 92554 net.cpp:129] Top shape: 64 96 16 12 (1179648)
I1217 07:35:19.752746 92554 net.cpp:137] Memory required for data: 49233152
I1217 07:35:19.752750 92554 layer_factory.hpp:77] Creating layer conv2
I1217 07:35:19.752763 92554 net.cpp:84] Creating Layer conv2
I1217 07:35:19.752773 92554 net.cpp:406] conv2 <- norm1
I1217 07:35:19.752779 92554 net.cpp:380] conv2 -> conv2
I1217 07:35:19.755208 92554 net.cpp:122] Setting up conv2
I1217 07:35:19.755236 92554 net.cpp:129] Top shape: 64 128 16 12 (1572864)
I1217 07:35:19.755240 92554 net.cpp:137] Memory required for data: 55524608
I1217 07:35:19.755251 92554 layer_factory.hpp:77] Creating layer relu2
I1217 07:35:19.755257 92554 net.cpp:84] Creating Layer relu2
I1217 07:35:19.755264 92554 net.cpp:406] relu2 <- conv2
I1217 07:35:19.755270 92554 net.cpp:367] relu2 -> conv2 (in-place)
I1217 07:35:19.755600 92554 net.cpp:122] Setting up relu2
I1217 07:35:19.755622 92554 net.cpp:129] Top shape: 64 128 16 12 (1572864)
I1217 07:35:19.755626 92554 net.cpp:137] Memory required for data: 61816064
I1217 07:35:19.755630 92554 layer_factory.hpp:77] Creating layer pool2
I1217 07:35:19.755638 92554 net.cpp:84] Creating Layer pool2
I1217 07:35:19.755648 92554 net.cpp:406] pool2 <- conv2
I1217 07:35:19.755655 92554 net.cpp:380] pool2 -> pool2
I1217 07:35:19.755699 92554 net.cpp:122] Setting up pool2
I1217 07:35:19.755713 92554 net.cpp:129] Top shape: 64 128 8 6 (393216)
I1217 07:35:19.755717 92554 net.cpp:137] Memory required for data: 63388928
I1217 07:35:19.755719 92554 layer_factory.hpp:77] Creating layer norm2
I1217 07:35:19.755728 92554 net.cpp:84] Creating Layer norm2
I1217 07:35:19.755738 92554 net.cpp:406] norm2 <- pool2
I1217 07:35:19.755743 92554 net.cpp:380] norm2 -> norm2
I1217 07:35:19.755987 92554 net.cpp:122] Setting up norm2
I1217 07:35:19.756006 92554 net.cpp:129] Top shape: 64 128 8 6 (393216)
I1217 07:35:19.756008 92554 net.cpp:137] Memory required for data: 64961792
I1217 07:35:19.756011 92554 layer_factory.hpp:77] Creating layer fc6
I1217 07:35:19.756021 92554 net.cpp:84] Creating Layer fc6
I1217 07:35:19.756026 92554 net.cpp:406] fc6 <- norm2
I1217 07:35:19.756036 92554 net.cpp:380] fc6 -> fc6
I1217 07:35:19.769660 92554 net.cpp:122] Setting up fc6
I1217 07:35:19.769685 92554 net.cpp:129] Top shape: 64 300 (19200)
I1217 07:35:19.769688 92554 net.cpp:137] Memory required for data: 65038592
I1217 07:35:19.769701 92554 layer_factory.hpp:77] Creating layer relu6
I1217 07:35:19.769708 92554 net.cpp:84] Creating Layer relu6
I1217 07:35:19.769712 92554 net.cpp:406] relu6 <- fc6
I1217 07:35:19.769717 92554 net.cpp:367] relu6 -> fc6 (in-place)
I1217 07:35:19.770056 92554 net.cpp:122] Setting up relu6
I1217 07:35:19.770078 92554 net.cpp:129] Top shape: 64 300 (19200)
I1217 07:35:19.770081 92554 net.cpp:137] Memory required for data: 65115392
I1217 07:35:19.770088 92554 layer_factory.hpp:77] Creating layer drop6
I1217 07:35:19.770103 92554 net.cpp:84] Creating Layer drop6
I1217 07:35:19.770107 92554 net.cpp:406] drop6 <- fc6
I1217 07:35:19.770121 92554 net.cpp:367] drop6 -> fc6 (in-place)
I1217 07:35:19.770151 92554 net.cpp:122] Setting up drop6
I1217 07:35:19.770164 92554 net.cpp:129] Top shape: 64 300 (19200)
I1217 07:35:19.770167 92554 net.cpp:137] Memory required for data: 65192192
I1217 07:35:19.770170 92554 layer_factory.hpp:77] Creating layer fc7
I1217 07:35:19.770179 92554 net.cpp:84] Creating Layer fc7
I1217 07:35:19.770189 92554 net.cpp:406] fc7 <- fc6
I1217 07:35:19.770195 92554 net.cpp:380] fc7 -> fc7
I1217 07:35:19.771273 92554 net.cpp:122] Setting up fc7
I1217 07:35:19.771296 92554 net.cpp:129] Top shape: 64 300 (19200)
I1217 07:35:19.771298 92554 net.cpp:137] Memory required for data: 65268992
I1217 07:35:19.771306 92554 layer_factory.hpp:77] Creating layer relu7
I1217 07:35:19.771320 92554 net.cpp:84] Creating Layer relu7
I1217 07:35:19.771324 92554 net.cpp:406] relu7 <- fc7
I1217 07:35:19.771329 92554 net.cpp:367] relu7 -> fc7 (in-place)
I1217 07:35:19.771659 92554 net.cpp:122] Setting up relu7
I1217 07:35:19.771680 92554 net.cpp:129] Top shape: 64 300 (19200)
I1217 07:35:19.771684 92554 net.cpp:137] Memory required for data: 65345792
I1217 07:35:19.771687 92554 layer_factory.hpp:77] Creating layer drop7
I1217 07:35:19.771701 92554 net.cpp:84] Creating Layer drop7
I1217 07:35:19.771705 92554 net.cpp:406] drop7 <- fc7
I1217 07:35:19.771710 92554 net.cpp:367] drop7 -> fc7 (in-place)
I1217 07:35:19.771744 92554 net.cpp:122] Setting up drop7
I1217 07:35:19.771756 92554 net.cpp:129] Top shape: 64 300 (19200)
I1217 07:35:19.771759 92554 net.cpp:137] Memory required for data: 65422592
I1217 07:35:19.771761 92554 layer_factory.hpp:77] Creating layer score
I1217 07:35:19.771775 92554 net.cpp:84] Creating Layer score
I1217 07:35:19.771785 92554 net.cpp:406] score <- fc7
I1217 07:35:19.771791 92554 net.cpp:380] score -> score
I1217 07:35:19.771898 92554 net.cpp:122] Setting up score
I1217 07:35:19.771914 92554 net.cpp:129] Top shape: 64 19 (1216)
I1217 07:35:19.771922 92554 net.cpp:137] Memory required for data: 65427456
I1217 07:35:19.771931 92554 layer_factory.hpp:77] Creating layer loss
I1217 07:35:19.771950 92554 net.cpp:84] Creating Layer loss
I1217 07:35:19.771960 92554 net.cpp:406] loss <- score
I1217 07:35:19.771965 92554 net.cpp:406] loss <- label
I1217 07:35:19.771975 92554 net.cpp:380] loss -> loss
I1217 07:35:19.772013 92554 net.cpp:122] Setting up loss
…
