…
test_initialization: false
average_loss: 25
iter_size: 1
I1217 05:56:41.303153 98985 solver.cpp:77] Creating training net from train_net file: /home/xikun/project/proj_src/models/trainnet.prototxt
I1217 05:56:41.303416 98985 net.cpp:51] Initializing net from parameters: 
state {
  phase: TRAIN
}
layer {
  name: "data"
  type: "Python"
  top: "data"
  top: "label"
  python_param {
    module: "multilabel_datalayers"
    layer: "MultilabelDataLayerSync"
    param_str: "{\'split\': \'train\', \'data_root\': \'/home/xikun/project/CS446-project_data\', \'batch_size\': 64}"
  }
}
layer {
  name: "conv1"
  type: "Convolution"
  bottom: "data"
  top: "conv1"
  param {
    lr_mult: 1
    decay_mult: 1
  }
  param {
    lr_mult: 2
    decay_mult: 0
  }
  convolution_param {
    num_output: 96
    pad: 0
    kernel_size: 1
    group: 1
    stride: 1
    weight_filler {
      type: "xavier"
    }
    bias_filler {
      type: "constant"
      value: 0
    }
  }
}
layer {
  name: "relu1"
  type: "ReLU"
  bottom: "conv1"
  top: "conv1"
}
layer {
  name: "pool1"
  type: "Pooling"
  bottom: "conv1"
  top: "pool1"
  pooling_param {
    pool: MAX
    kernel_size: 3
    stride: 2
  }
}
layer {
  name: "norm1"
  type: "LRN"
  bottom: "pool1"
  top: "norm1"
  lrn_param {
    local_size: 5
    alpha: 0.0001
    beta: 0.75
  }
}
layer {
  name: "conv2"
  type: "Convolution"
  bottom: "norm1"
  top: "conv2"
  param {
    lr_mult: 1
    decay_mult: 1
  }
  param {
    lr_mult: 2
    decay_mult: 0
  }
  convolution_param {
    num_output: 128
    pad: 0
    kernel_size: 1
    group: 2
    stride: 1
    weight_filler {
      type: "xavier"
    }
    bias_filler {
      type: "constant"
      value: 0
    }
  }
}
layer {
  name: "relu2"
  type: "ReLU"
  bottom: "conv2"
  top: "conv2"
}
layer {
  name: "pool2"
  type: "Pooling"
  bottom: "conv2"
  top: "pool2"
  pooling_param {
    pool: MAX
    kernel_size: 3
    stride: 2
  }
}
layer {
  name: "norm2"
  type: "LRN"
  bottom: "pool2"
  top: "norm2"
  lrn_param {
    local_size: 5
    alpha: 0.0001
    beta: 0.75
  }
}
layer {
  name: "fc6"
  type: "InnerProduct"
  bottom: "norm2"
  top: "fc6"
  inner_product_param {
    num_output: 50
    weight_filler {
      type: "xavier"
    }
    bias_filler {
      type: "constant"
      value: 1
    }
  }
}
layer {
  name: "relu6"
  type: "ReLU"
  bottom: "fc6"
  top: "fc6"
}
layer {
  name: "drop6"
  type: "Dropout"
  bottom: "fc6"
  top: "fc6"
}
layer {
  name: "fc7"
  type: "InnerProduct"
  bottom: "fc6"
  top: "fc7"
  inner_product_param {
    num_output: 50
    weight_filler {
      type: "xavier"
    }
    bias_filler {
      type: "constant"
      value: 1
    }
  }
}
layer {
  name: "relu7"
  type: "ReLU"
  bottom: "fc7"
  top: "fc7"
}
layer {
  name: "drop7"
  type: "Dropout"
  bottom: "fc7"
  top: "fc7"
}
layer {
  name: "score"
  type: "InnerProduct"
  bottom: "fc7"
  top: "score"
  inner_product_param {
    num_output: 19
  }
}
layer {
  name: "loss"
  type: "SigmoidCrossEntropyLoss"
  bottom: "score"
  bottom: "label"
  top: "loss"
}
I1217 05:56:41.303483 98985 layer_factory.hpp:77] Creating layer data
I1217 05:56:41.306751 98985 net.cpp:84] Creating Layer data
I1217 05:56:41.306766 98985 net.cpp:380] data -> data
I1217 05:56:41.306777 98985 net.cpp:380] data -> label
I1217 05:56:41.778990 98985 net.cpp:122] Setting up data
I1217 05:56:41.779063 98985 net.cpp:129] Top shape: 64 26 31 23 (1186432)
I1217 05:56:41.779088 98985 net.cpp:129] Top shape: 64 19 (1216)
I1217 05:56:41.779099 98985 net.cpp:137] Memory required for data: 4750592
I1217 05:56:41.779114 98985 layer_factory.hpp:77] Creating layer conv1
I1217 05:56:41.779160 98985 net.cpp:84] Creating Layer conv1
I1217 05:56:41.779175 98985 net.cpp:406] conv1 <- data
I1217 05:56:41.779201 98985 net.cpp:380] conv1 -> conv1
I1217 05:56:42.237946 98985 net.cpp:122] Setting up conv1
I1217 05:56:42.238018 98985 net.cpp:129] Top shape: 64 96 31 23 (4380672)
I1217 05:56:42.238040 98985 net.cpp:137] Memory required for data: 22273280
I1217 05:56:42.238070 98985 layer_factory.hpp:77] Creating layer relu1
I1217 05:56:42.238101 98985 net.cpp:84] Creating Layer relu1
I1217 05:56:42.238113 98985 net.cpp:406] relu1 <- conv1
I1217 05:56:42.238135 98985 net.cpp:367] relu1 -> conv1 (in-place)
I1217 05:56:42.238476 98985 net.cpp:122] Setting up relu1
I1217 05:56:42.238523 98985 net.cpp:129] Top shape: 64 96 31 23 (4380672)
I1217 05:56:42.238548 98985 net.cpp:137] Memory required for data: 39795968
I1217 05:56:42.238572 98985 layer_factory.hpp:77] Creating layer pool1
I1217 05:56:42.238591 98985 net.cpp:84] Creating Layer pool1
I1217 05:56:42.238613 98985 net.cpp:406] pool1 <- conv1
I1217 05:56:42.238641 98985 net.cpp:380] pool1 -> pool1
I1217 05:56:42.238700 98985 net.cpp:122] Setting up pool1
I1217 05:56:42.238723 98985 net.cpp:129] Top shape: 64 96 15 11 (1013760)
I1217 05:56:42.238737 98985 net.cpp:137] Memory required for data: 43851008
I1217 05:56:42.238752 98985 layer_factory.hpp:77] Creating layer norm1
I1217 05:56:42.238786 98985 net.cpp:84] Creating Layer norm1
I1217 05:56:42.238809 98985 net.cpp:406] norm1 <- pool1
I1217 05:56:42.238826 98985 net.cpp:380] norm1 -> norm1
I1217 05:56:42.239094 98985 net.cpp:122] Setting up norm1
I1217 05:56:42.239132 98985 net.cpp:129] Top shape: 64 96 15 11 (1013760)
I1217 05:56:42.239154 98985 net.cpp:137] Memory required for data: 47906048
I1217 05:56:42.239177 98985 layer_factory.hpp:77] Creating layer conv2
I1217 05:56:42.239213 98985 net.cpp:84] Creating Layer conv2
I1217 05:56:42.239238 98985 net.cpp:406] conv2 <- norm1
I1217 05:56:42.239267 98985 net.cpp:380] conv2 -> conv2
I1217 05:56:42.241704 98985 net.cpp:122] Setting up conv2
I1217 05:56:42.241750 98985 net.cpp:129] Top shape: 64 128 15 11 (1351680)
I1217 05:56:42.241780 98985 net.cpp:137] Memory required for data: 53312768
I1217 05:56:42.241802 98985 layer_factory.hpp:77] Creating layer relu2
I1217 05:56:42.241830 98985 net.cpp:84] Creating Layer relu2
I1217 05:56:42.241853 98985 net.cpp:406] relu2 <- conv2
I1217 05:56:42.241879 98985 net.cpp:367] relu2 -> conv2 (in-place)
I1217 05:56:42.242244 98985 net.cpp:122] Setting up relu2
I1217 05:56:42.242288 98985 net.cpp:129] Top shape: 64 128 15 11 (1351680)
I1217 05:56:42.242312 98985 net.cpp:137] Memory required for data: 58719488
I1217 05:56:42.242334 98985 layer_factory.hpp:77] Creating layer pool2
I1217 05:56:42.242352 98985 net.cpp:84] Creating Layer pool2
I1217 05:56:42.242374 98985 net.cpp:406] pool2 <- conv2
I1217 05:56:42.242393 98985 net.cpp:380] pool2 -> pool2
I1217 05:56:42.242461 98985 net.cpp:122] Setting up pool2
I1217 05:56:42.242494 98985 net.cpp:129] Top shape: 64 128 7 5 (286720)
I1217 05:56:42.242516 98985 net.cpp:137] Memory required for data: 59866368
I1217 05:56:42.242529 98985 layer_factory.hpp:77] Creating layer norm2
I1217 05:56:42.242554 98985 net.cpp:84] Creating Layer norm2
I1217 05:56:42.242576 98985 net.cpp:406] norm2 <- pool2
I1217 05:56:42.242604 98985 net.cpp:380] norm2 -> norm2
I1217 05:56:42.242874 98985 net.cpp:122] Setting up norm2
I1217 05:56:42.242913 98985 net.cpp:129] Top shape: 64 128 7 5 (286720)
I1217 05:56:42.242934 98985 net.cpp:137] Memory required for data: 61013248
I1217 05:56:42.242957 98985 layer_factory.hpp:77] Creating layer fc6
I1217 05:56:42.242976 98985 net.cpp:84] Creating Layer fc6
I1217 05:56:42.242998 98985 net.cpp:406] fc6 <- norm2
I1217 05:56:42.243017 98985 net.cpp:380] fc6 -> fc6
I1217 05:56:42.244724 98985 net.cpp:122] Setting up fc6
I1217 05:56:42.244768 98985 net.cpp:129] Top shape: 64 50 (3200)
I1217 05:56:42.244791 98985 net.cpp:137] Memory required for data: 61026048
I1217 05:56:42.244820 98985 layer_factory.hpp:77] Creating layer relu6
I1217 05:56:42.244846 98985 net.cpp:84] Creating Layer relu6
I1217 05:56:42.244879 98985 net.cpp:406] relu6 <- fc6
I1217 05:56:42.244905 98985 net.cpp:367] relu6 -> fc6 (in-place)
I1217 05:56:42.245259 98985 net.cpp:122] Setting up relu6
I1217 05:56:42.245298 98985 net.cpp:129] Top shape: 64 50 (3200)
I1217 05:56:42.245321 98985 net.cpp:137] Memory required for data: 61038848
I1217 05:56:42.245343 98985 layer_factory.hpp:77] Creating layer drop6
I1217 05:56:42.245364 98985 net.cpp:84] Creating Layer drop6
I1217 05:56:42.245386 98985 net.cpp:406] drop6 <- fc6
I1217 05:56:42.245404 98985 net.cpp:367] drop6 -> fc6 (in-place)
I1217 05:56:42.245457 98985 net.cpp:122] Setting up drop6
I1217 05:56:42.245486 98985 net.cpp:129] Top shape: 64 50 (3200)
I1217 05:56:42.245507 98985 net.cpp:137] Memory required for data: 61051648
I1217 05:56:42.245522 98985 layer_factory.hpp:77] Creating layer fc7
I1217 05:56:42.245548 98985 net.cpp:84] Creating Layer fc7
I1217 05:56:42.245570 98985 net.cpp:406] fc7 <- fc6
I1217 05:56:42.245595 98985 net.cpp:380] fc7 -> fc7
I1217 05:56:42.245740 98985 net.cpp:122] Setting up fc7
I1217 05:56:42.245771 98985 net.cpp:129] Top shape: 64 50 (3200)
I1217 05:56:42.245791 98985 net.cpp:137] Memory required for data: 61064448
I1217 05:56:42.245810 98985 layer_factory.hpp:77] Creating layer relu7
I1217 05:56:42.245836 98985 net.cpp:84] Creating Layer relu7
I1217 05:56:42.245858 98985 net.cpp:406] relu7 <- fc7
I1217 05:56:42.245874 98985 net.cpp:367] relu7 -> fc7 (in-place)
I1217 05:56:42.246220 98985 net.cpp:122] Setting up relu7
I1217 05:56:42.246260 98985 net.cpp:129] Top shape: 64 50 (3200)
I1217 05:56:42.246282 98985 net.cpp:137] Memory required for data: 61077248
I1217 05:56:42.246305 98985 layer_factory.hpp:77] Creating layer drop7
I1217 05:56:42.246322 98985 net.cpp:84] Creating Layer drop7
I1217 05:56:42.246343 98985 net.cpp:406] drop7 <- fc7
I1217 05:56:42.246363 98985 net.cpp:367] drop7 -> fc7 (in-place)
I1217 05:56:42.246415 98985 net.cpp:122] Setting up drop7
I1217 05:56:42.246444 98985 net.cpp:129] Top shape: 64 50 (3200)
I1217 05:56:42.246465 98985 net.cpp:137] Memory required for data: 61090048
I1217 05:56:42.246479 98985 layer_factory.hpp:77] Creating layer score
I1217 05:56:42.246500 98985 net.cpp:84] Creating Layer score
I1217 05:56:42.246521 98985 net.cpp:406] score <- fc7
I1217 05:56:42.246538 98985 net.cpp:380] score -> score
I1217 05:56:42.246673 98985 net.cpp:122] Setting up score
I1217 05:56:42.246703 98985 net.cpp:129] Top shape: 64 19 (1216)
I1217 05:56:42.246723 98985 net.cpp:137] Memory required for data: 61094912
I1217 05:56:42.246754 98985 layer_factory.hpp:77] Creating layer loss
I1217 05:56:42.246788 98985 net.cpp:84] Creating Layer loss
I1217 05:56:42.246810 98985 net.cpp:406] loss <- score
I1217 05:56:42.246857 98985 net.cpp:406] loss <- label
I1217 05:56:42.246879 98985 net.cpp:380] loss -> loss
I1217 05:56:42.246942 98985 net.cpp:122] Setting up loss
…
