…
iter_size: 1
momentum2: 0.999
type: "Adam"
I1217 18:34:41.526923 30545 solver.cpp:77] Creating training net from train_net file: /home/xikun/project/proj_src/models/trainnet.prototxt
I1217 18:34:41.527190 30545 net.cpp:51] Initializing net from parameters: 
state {
  phase: TRAIN
}
layer {
  name: "data"
  type: "Python"
  top: "data"
  top: "label"
  python_param {
    module: "multilabel_datalayers"
    layer: "MultilabelDataLayerSync"
    param_str: "{\'split\': \'train\', \'data_root\': \'/home/xikun/project/CS446-project_data\', \'batch_size\': 64}"
  }
}
layer {
  name: "conv1"
  type: "Convolution"
  bottom: "data"
  top: "conv1"
  param {
    lr_mult: 1
    decay_mult: 1
  }
  param {
    lr_mult: 2
    decay_mult: 0
  }
  convolution_param {
    num_output: 96
    pad: 0
    kernel_size: 1
    group: 1
    stride: 1
    weight_filler {
      type: "xavier"
    }
    bias_filler {
      type: "constant"
      value: 0
    }
  }
}
layer {
  name: "relu1"
  type: "ReLU"
  bottom: "conv1"
  top: "conv1"
}
layer {
  name: "pool1"
  type: "Pooling"
  bottom: "conv1"
  top: "pool1"
  pooling_param {
    pool: MAX
    kernel_size: 2
    stride: 2
  }
}
layer {
  name: "norm1"
  type: "LRN"
  bottom: "pool1"
  top: "norm1"
  lrn_param {
    local_size: 5
    alpha: 0.0001
    beta: 0.75
  }
}
layer {
  name: "conv2"
  type: "Convolution"
  bottom: "norm1"
  top: "conv2"
  param {
    lr_mult: 1
    decay_mult: 1
  }
  param {
    lr_mult: 2
    decay_mult: 0
  }
  convolution_param {
    num_output: 128
    pad: 0
    kernel_size: 1
    group: 2
    stride: 1
    weight_filler {
      type: "xavier"
    }
    bias_filler {
      type: "constant"
      value: 0
    }
  }
}
layer {
  name: "relu2"
  type: "ReLU"
  bottom: "conv2"
  top: "conv2"
}
layer {
  name: "pool2"
  type: "Pooling"
  bottom: "conv2"
  top: "pool2"
  pooling_param {
    pool: MAX
    kernel_size: 2
    stride: 2
  }
}
layer {
  name: "norm2"
  type: "LRN"
  bottom: "pool2"
  top: "norm2"
  lrn_param {
    local_size: 5
    alpha: 0.0001
    beta: 0.75
  }
}
layer {
  name: "fc6"
  type: "InnerProduct"
  bottom: "norm2"
  top: "fc6"
  inner_product_param {
    num_output: 300
    weight_filler {
      type: "xavier"
    }
    bias_filler {
      type: "constant"
      value: 1
    }
  }
}
layer {
  name: "relu6"
  type: "ReLU"
  bottom: "fc6"
  top: "fc6"
}
layer {
  name: "drop6"
  type: "Dropout"
  bottom: "fc6"
  top: "fc6"
}
layer {
  name: "fc7"
  type: "InnerProduct"
  bottom: "fc6"
  top: "fc7"
  inner_product_param {
    num_output: 300
    weight_filler {
      type: "xavier"
    }
    bias_filler {
      type: "constant"
      value: 1
    }
  }
}
layer {
  name: "relu7"
  type: "ReLU"
  bottom: "fc7"
  top: "fc7"
}
layer {
  name: "drop7"
  type: "Dropout"
  bottom: "fc7"
  top: "fc7"
}
layer {
  name: "score"
  type: "InnerProduct"
  bottom: "fc7"
  top: "score"
  inner_product_param {
    num_output: 19
  }
}
layer {
  name: "loss"
  type: "SigmoidCrossEntropyLoss"
  bottom: "score"
  bottom: "label"
  top: "loss"
}
I1217 18:34:41.527319 30545 layer_factory.hpp:77] Creating layer data
I1217 18:34:41.532060 30545 net.cpp:84] Creating Layer data
I1217 18:34:41.532101 30545 net.cpp:380] data -> data
I1217 18:34:41.532131 30545 net.cpp:380] data -> label
I1217 18:34:42.103266 30545 net.cpp:122] Setting up data
I1217 18:34:42.103340 30545 net.cpp:129] Top shape: 64 26 31 23 (1186432)
I1217 18:34:42.103364 30545 net.cpp:129] Top shape: 64 19 (1216)
I1217 18:34:42.103376 30545 net.cpp:137] Memory required for data: 4750592
I1217 18:34:42.103390 30545 layer_factory.hpp:77] Creating layer conv1
I1217 18:34:42.103428 30545 net.cpp:84] Creating Layer conv1
I1217 18:34:42.103451 30545 net.cpp:406] conv1 <- data
I1217 18:34:42.103476 30545 net.cpp:380] conv1 -> conv1
I1217 18:34:42.572094 30545 net.cpp:122] Setting up conv1
I1217 18:34:42.572165 30545 net.cpp:129] Top shape: 64 96 31 23 (4380672)
I1217 18:34:42.572186 30545 net.cpp:137] Memory required for data: 22273280
I1217 18:34:42.572216 30545 layer_factory.hpp:77] Creating layer relu1
I1217 18:34:42.572237 30545 net.cpp:84] Creating Layer relu1
I1217 18:34:42.572250 30545 net.cpp:406] relu1 <- conv1
I1217 18:34:42.572263 30545 net.cpp:367] relu1 -> conv1 (in-place)
I1217 18:34:42.572618 30545 net.cpp:122] Setting up relu1
I1217 18:34:42.572654 30545 net.cpp:129] Top shape: 64 96 31 23 (4380672)
I1217 18:34:42.572674 30545 net.cpp:137] Memory required for data: 39795968
I1217 18:34:42.572687 30545 layer_factory.hpp:77] Creating layer pool1
I1217 18:34:42.572702 30545 net.cpp:84] Creating Layer pool1
I1217 18:34:42.572715 30545 net.cpp:406] pool1 <- conv1
I1217 18:34:42.572727 30545 net.cpp:380] pool1 -> pool1
I1217 18:34:42.572783 30545 net.cpp:122] Setting up pool1
I1217 18:34:42.572809 30545 net.cpp:129] Top shape: 64 96 16 12 (1179648)
I1217 18:34:42.572820 30545 net.cpp:137] Memory required for data: 44514560
I1217 18:34:42.572831 30545 layer_factory.hpp:77] Creating layer norm1
I1217 18:34:42.572849 30545 net.cpp:84] Creating Layer norm1
I1217 18:34:42.572860 30545 net.cpp:406] norm1 <- pool1
I1217 18:34:42.572873 30545 net.cpp:380] norm1 -> norm1
I1217 18:34:42.573109 30545 net.cpp:122] Setting up norm1
I1217 18:34:42.573143 30545 net.cpp:129] Top shape: 64 96 16 12 (1179648)
I1217 18:34:42.573163 30545 net.cpp:137] Memory required for data: 49233152
I1217 18:34:42.573173 30545 layer_factory.hpp:77] Creating layer conv2
I1217 18:34:42.573194 30545 net.cpp:84] Creating Layer conv2
I1217 18:34:42.573205 30545 net.cpp:406] conv2 <- norm1
I1217 18:34:42.573220 30545 net.cpp:380] conv2 -> conv2
I1217 18:34:42.577085 30545 net.cpp:122] Setting up conv2
I1217 18:34:42.577126 30545 net.cpp:129] Top shape: 64 128 16 12 (1572864)
I1217 18:34:42.577147 30545 net.cpp:137] Memory required for data: 55524608
I1217 18:34:42.577167 30545 layer_factory.hpp:77] Creating layer relu2
I1217 18:34:42.577183 30545 net.cpp:84] Creating Layer relu2
I1217 18:34:42.577194 30545 net.cpp:406] relu2 <- conv2
I1217 18:34:42.577206 30545 net.cpp:367] relu2 -> conv2 (in-place)
I1217 18:34:42.577558 30545 net.cpp:122] Setting up relu2
I1217 18:34:42.577595 30545 net.cpp:129] Top shape: 64 128 16 12 (1572864)
I1217 18:34:42.577615 30545 net.cpp:137] Memory required for data: 61816064
I1217 18:34:42.577627 30545 layer_factory.hpp:77] Creating layer pool2
I1217 18:34:42.577643 30545 net.cpp:84] Creating Layer pool2
I1217 18:34:42.577656 30545 net.cpp:406] pool2 <- conv2
I1217 18:34:42.577670 30545 net.cpp:380] pool2 -> pool2
I1217 18:34:42.577733 30545 net.cpp:122] Setting up pool2
I1217 18:34:42.577760 30545 net.cpp:129] Top shape: 64 128 8 6 (393216)
I1217 18:34:42.577771 30545 net.cpp:137] Memory required for data: 63388928
I1217 18:34:42.577781 30545 layer_factory.hpp:77] Creating layer norm2
I1217 18:34:42.577800 30545 net.cpp:84] Creating Layer norm2
I1217 18:34:42.577811 30545 net.cpp:406] norm2 <- pool2
I1217 18:34:42.577824 30545 net.cpp:380] norm2 -> norm2
I1217 18:34:42.578086 30545 net.cpp:122] Setting up norm2
I1217 18:34:42.578120 30545 net.cpp:129] Top shape: 64 128 8 6 (393216)
I1217 18:34:42.578140 30545 net.cpp:137] Memory required for data: 64961792
I1217 18:34:42.578150 30545 layer_factory.hpp:77] Creating layer fc6
I1217 18:34:42.578167 30545 net.cpp:84] Creating Layer fc6
I1217 18:34:42.578186 30545 net.cpp:406] fc6 <- norm2
I1217 18:34:42.578200 30545 net.cpp:380] fc6 -> fc6
I1217 18:34:42.590708 30545 net.cpp:122] Setting up fc6
I1217 18:34:42.590766 30545 net.cpp:129] Top shape: 64 300 (19200)
I1217 18:34:42.590788 30545 net.cpp:137] Memory required for data: 65038592
I1217 18:34:42.590812 30545 layer_factory.hpp:77] Creating layer relu6
I1217 18:34:42.590839 30545 net.cpp:84] Creating Layer relu6
I1217 18:34:42.590852 30545 net.cpp:406] relu6 <- fc6
I1217 18:34:42.590867 30545 net.cpp:367] relu6 -> fc6 (in-place)
I1217 18:34:42.591351 30545 net.cpp:122] Setting up relu6
I1217 18:34:42.591387 30545 net.cpp:129] Top shape: 64 300 (19200)
I1217 18:34:42.591406 30545 net.cpp:137] Memory required for data: 65115392
I1217 18:34:42.591418 30545 layer_factory.hpp:77] Creating layer drop6
I1217 18:34:42.591433 30545 net.cpp:84] Creating Layer drop6
I1217 18:34:42.591450 30545 net.cpp:406] drop6 <- fc6
I1217 18:34:42.591466 30545 net.cpp:367] drop6 -> fc6 (in-place)
I1217 18:34:42.591511 30545 net.cpp:122] Setting up drop6
I1217 18:34:42.591528 30545 net.cpp:129] Top shape: 64 300 (19200)
I1217 18:34:42.591538 30545 net.cpp:137] Memory required for data: 65192192
I1217 18:34:42.591557 30545 layer_factory.hpp:77] Creating layer fc7
I1217 18:34:42.591572 30545 net.cpp:84] Creating Layer fc7
I1217 18:34:42.591583 30545 net.cpp:406] fc7 <- fc6
I1217 18:34:42.591598 30545 net.cpp:380] fc7 -> fc7
I1217 18:34:42.592710 30545 net.cpp:122] Setting up fc7
I1217 18:34:42.592746 30545 net.cpp:129] Top shape: 64 300 (19200)
I1217 18:34:42.592766 30545 net.cpp:137] Memory required for data: 65268992
I1217 18:34:42.592782 30545 layer_factory.hpp:77] Creating layer relu7
I1217 18:34:42.592797 30545 net.cpp:84] Creating Layer relu7
I1217 18:34:42.592808 30545 net.cpp:406] relu7 <- fc7
I1217 18:34:42.592820 30545 net.cpp:367] relu7 -> fc7 (in-place)
I1217 18:34:42.593170 30545 net.cpp:122] Setting up relu7
I1217 18:34:42.593205 30545 net.cpp:129] Top shape: 64 300 (19200)
I1217 18:34:42.593225 30545 net.cpp:137] Memory required for data: 65345792
I1217 18:34:42.593236 30545 layer_factory.hpp:77] Creating layer drop7
I1217 18:34:42.593252 30545 net.cpp:84] Creating Layer drop7
I1217 18:34:42.593264 30545 net.cpp:406] drop7 <- fc7
I1217 18:34:42.593277 30545 net.cpp:367] drop7 -> fc7 (in-place)
I1217 18:34:42.593319 30545 net.cpp:122] Setting up drop7
I1217 18:34:42.593338 30545 net.cpp:129] Top shape: 64 300 (19200)
I1217 18:34:42.593355 30545 net.cpp:137] Memory required for data: 65422592
I1217 18:34:42.593366 30545 layer_factory.hpp:77] Creating layer score
I1217 18:34:42.593379 30545 net.cpp:84] Creating Layer score
I1217 18:34:42.593390 30545 net.cpp:406] score <- fc7
I1217 18:34:42.593405 30545 net.cpp:380] score -> score
I1217 18:34:42.593530 30545 net.cpp:122] Setting up score
I1217 18:34:42.593549 30545 net.cpp:129] Top shape: 64 19 (1216)
I1217 18:34:42.593559 30545 net.cpp:137] Memory required for data: 65427456
I1217 18:34:42.593580 30545 layer_factory.hpp:77] Creating layer loss
I1217 18:34:42.593601 30545 net.cpp:84] Creating Layer loss
I1217 18:34:42.593613 30545 net.cpp:406] loss <- score
I1217 18:34:42.593626 30545 net.cpp:406] loss <- label
I1217 18:34:42.593638 30545 net.cpp:380] loss -> loss
I1217 18:34:42.593693 30545 net.cpp:122] Setting up loss
…
